…
Num Workers: 0, Prefetch: None
Building dataset and dataloader...
Training without early stopping. No validation set required, all data used for training.
Training will stop after 100 iterations.
Initializing model, graph, optimizer...
BERT's original pooler removed. Using custom pooling type: mean
BERT has 108,891,648 trainable parameters and 0 non-trainable parameters
Number of BERT layers requiring gradients: 12 out of 12
Fine-tuning the last 12 out of 12 BERT layers

Model Architecture Summary:
BERTClassifier(
  (bert): ElectraModel(
    (embeddings): ElectraEmbeddings(
      (word_embeddings): Embedding(30522, 768, padding_idx=0)
      (position_embeddings): Embedding(512, 768)
      (token_type_embeddings): Embedding(2, 768)
      (LayerNorm): LayerNorm((768,), eps=1e-12, elementwise_affine=True)
      (dropout): Dropout(p=0.1, inplace=False)
    )
    (encoder): ElectraEncoder(
      (layer): ModuleList(
        (0-11): 12 x ElectraLayer(
          (attention): ElectraAttention(
            (self): ElectraSelfAttention(
              (query): Linear(in_features=768, out_features=768, bias=True)
              (key): Linear(in_features=768, out_features=768, bias=True)
              (value): Linear(in_features=768, out_features=768, bias=True)
              (dropout): Dropout(p=0.1, inplace=False)
            )
            (output): ElectraSelfOutput(
              (dense): Linear(in_features=768, out_features=768, bias=True)
              (LayerNorm): LayerNorm((768,), eps=1e-12, elementwise_affine=True)
              (dropout): Dropout(p=0.1, inplace=False)
            )
          )
          (intermediate): ElectraIntermediate(
            (dense): Linear(in_features=768, out_features=3072, bias=True)
            (intermediate_act_fn): GELUActivation()
          )
          (output): ElectraOutput(
            (dense): Linear(in_features=3072, out_features=768, bias=True)
            (LayerNorm): LayerNorm((768,), eps=1e-12, elementwise_affine=True)
            (dropout): Dropout(p=0.1, inplace=False)
          )
        )
      )
    )
  )
  (custom_pooling): PoolingLayer()
  (classifier): Classifier(
    (layers): Sequential(
      (0): Linear(in_features=768, out_features=1024, bias=True)
      (1): SwishGLU(
        (projection): Linear(in_features=1024, out_features=2048, bias=True)
        (activation): SiLU()
      )
      (2): Dropout(p=0.3, inplace=False)
      (3): Linear(in_features=1024, out_features=1024, bias=True)
      (4): SwishGLU(
        (projection): Linear(in_features=1024, out_features=2048, bias=True)
        (activation): SiLU()
      )
      (5): Dropout(p=0.3, inplace=False)
      (6): Linear(in_features=1024, out_features=3, bias=True)
    )
  )
)

Model Parameters:
  bert.embeddings.word_embeddings: 23,440,896 (trainable)
  bert.embeddings.position_embeddings: 393,216 (trainable)
  bert.embeddings.token_type_embeddings: 1,536 (trainable)
  bert.embeddings.LayerNorm: 1,536 (trainable)
  bert.encoder.layer.0.attention.self.query: 590,592 (trainable)
  bert.encoder.layer.0.attention.self.key: 590,592 (trainable)
…
Score-based early stopping enabled (macro average F1 score against validation set). Validation fraction: 0.1
Training will stop early if the score does not improve by at least 0.00001 for 100 iterations.
Using provided validation set for early stopping.
Building dataset and dataloader...
Initializing model, graph, optimizer...
BERT's original pooler removed. Using custom pooling type: mean
BERT has 151,154,688 trainable parameters and 182,937,600 non-trainable parameters
Number of BERT layers requiring gradients: 12 out of 24
Fine-tuning the last 12 out of 24 BERT layers

Model Architecture Summary:
BERTClassifier(
  (bert): ElectraModel(
    (embeddings): ElectraEmbeddings(
      (word_embeddings): Embedding(30522, 1024, padding_idx=0)
      (position_embeddings): Embedding(512, 1024)
      (token_type_embeddings): Embedding(2, 1024)
      (LayerNorm): LayerNorm((1024,), eps=1e-12, elementwise_affine=True)
      (dropout): Dropout(p=0.1, inplace=False)
    )
    (encoder): ElectraEncoder(
      (layer): ModuleList(
        (0-23): 24 x ElectraLayer(
          (attention): ElectraAttention(
            (self): ElectraSelfAttention(
              (query): Linear(in_features=1024, out_features=1024, bias=True)
              (key): Linear(in_features=1024, out_features=1024, bias=True)
              (value): Linear(in_features=1024, out_features=1024, bias=True)
              (dropout): Dropout(p=0.1, inplace=False)
            )
            (output): ElectraSelfOutput(
              (dense): Linear(in_features=1024, out_features=1024, bias=True)
              (LayerNorm): LayerNorm((1024,), eps=1e-12, elementwise_affine=True)
              (dropout): Dropout(p=0.1, inplace=False)
            )
          )
          (intermediate): ElectraIntermediate(
            (dense): Linear(in_features=1024, out_features=4096, bias=True)
            (intermediate_act_fn): GELUActivation()
          )
          (output): ElectraOutput(
            (dense): Linear(in_features=4096, out_features=1024, bias=True)
            (LayerNorm): LayerNorm((1024,), eps=1e-12, elementwise_affine=True)
            (dropout): Dropout(p=0.1, inplace=False)
          )
        )
      )
    )
  )
  (custom_pooling): PoolingLayer()
  (classifier): Classifier(
    (layers): Sequential(
      (0): Linear(in_features=1024, out_features=1024, bias=True)
      (1): SwishGLU(
        (projection): Linear(in_features=1024, out_features=2048, bias=True)
        (activation): SiLU()
      )
      (2): Dropout(p=0.3, inplace=False)
      (3): Linear(in_features=1024, out_features=1024, bias=True)
      (4): SwishGLU(
        (projection): Linear(in_features=1024, out_features=2048, bias=True)
        (activation): SiLU()
      )
      (5): Dropout(p=0.3, inplace=False)
      (6): Linear(in_features=1024, out_features=3, bias=True)
    )
  )
)

Model Parameters:
  bert.embeddings.word_embeddings: 31,254,528 (frozen)
  bert.embeddings.position_embeddings: 524,288 (frozen)
  bert.embeddings.token_type_embeddings: 2,048 (frozen)
  bert.embeddings.LayerNorm: 2,048 (frozen)
  bert.encoder.layer.0.attention.self.query: 1,049,600 (frozen)
  bert.encoder.layer.0.attention.self.key: 1,049,600 (frozen)
…
Batch Size: 512, Max Epochs: 50, LR: 0.0002, Early Stop: score, Fine-tune BERT: False, Fine-tune Layers: 1, Freeze BERT: False, Target Score: None, Interactive: True
Classifier initialized (21ms)

Fitting DDP Neural Classifier on training data...
Num Workers: 0, Prefetch: None
Score-based early stopping enabled (macro average F1 score against validation set). Validation fraction: 0.1
Training will stop early if the score does not improve by at least 0.00001 for 50 iterations.
Using provided validation set for early stopping.
Building dataset and dataloader...
Classes: ['negative', 'neutral', 'positive'], Number of classes: 3
Initializing model, graph, optimizer...

Model Architecture Summary:
Classifier(
  (layers): Sequential(
    (0): Linear(in_features=1024, out_features=1024, bias=True)
    (1): SwishGLU(
      (projection): Linear(in_features=1024, out_features=2048, bias=True)
      (activation): SiLU()
    )
    (2): Dropout(p=0.3, inplace=False)
    (3): Linear(in_features=1024, out_features=1024, bias=True)
    (4): SwishGLU(
      (projection): Linear(in_features=1024, out_features=2048, bias=True)
      (activation): SiLU()
    )
    (5): Dropout(p=0.3, inplace=False)
    (6): Linear(in_features=1024, out_features=3, bias=True)
  )
)

Model Parameters:
  layers.0: 1,049,600 (trainable)
  layers.1.projection: 2,099,200 (trainable)
  layers.3: 1,049,600 (trainable)
  layers.6: 3,075 (trainable)

Total layers: 4
Trainable layers: 4
Total parameters: 4,201,475
Trainable parameters: 4,201,475
Percentage of trainable parameters: 100.00%
An error occurred during training: list index out of range
…
