…
model.safetensors:  29%|███████████████████████████████████▊                                                                                        | 388M/1.34G [00:04<00:05, 175MB/s]Building dataset and dataloader...
Initializing model, graph, optimizer...
BERT's original pooler removed. Using custom pooling type: mean
BERT has 334,092,288 trainable parameters and 0 non-trainable parameters
Number of BERT layers requiring gradients: 24 out of 24
Fine-tuning the last 24 out of 24 BERT layers

Model Architecture Summary:
BERTClassifier(
  (bert): ElectraModel(
    (embeddings): ElectraEmbeddings(
      (word_embeddings): Embedding(30522, 1024, padding_idx=0)
      (position_embeddings): Embedding(512, 1024)
      (token_type_embeddings): Embedding(2, 1024)
      (LayerNorm): LayerNorm((1024,), eps=1e-12, elementwise_affine=True)
      (dropout): Dropout(p=0.1, inplace=False)
    )
    (encoder): ElectraEncoder(
      (layer): ModuleList(
        (0-23): 24 x ElectraLayer(
          (attention): ElectraAttention(
            (self): ElectraSelfAttention(
              (query): Linear(in_features=1024, out_features=1024, bias=True)
              (key): Linear(in_features=1024, out_features=1024, bias=True)
              (value): Linear(in_features=1024, out_features=1024, bias=True)
              (dropout): Dropout(p=0.1, inplace=False)
            )
            (output): ElectraSelfOutput(
              (dense): Linear(in_features=1024, out_features=1024, bias=True)
              (LayerNorm): LayerNorm((1024,), eps=1e-12, elementwise_affine=True)
              (dropout): Dropout(p=0.1, inplace=False)
            )
          )
          (intermediate): ElectraIntermediate(
            (dense): Linear(in_features=1024, out_features=4096, bias=True)
            (intermediate_act_fn): GELUActivation()
          )
          (output): ElectraOutput(
            (dense): Linear(in_features=4096, out_features=1024, bias=True)
            (LayerNorm): LayerNorm((1024,), eps=1e-12, elementwise_affine=True)
            (dropout): Dropout(p=0.1, inplace=False)
          )
        )
      )
    )
  )
  (custom_pooling): PoolingLayer()
  (classifier): Classifier(
    (layers): Sequential(
      (0): Linear(in_features=1024, out_features=1024, bias=True)
      (1): SwishGLU(
        (projection): Linear(in_features=1024, out_features=2048, bias=True)
        (activation): SiLU()
      )
      (2): Dropout(p=0.3, inplace=False)
      (3): Linear(in_features=1024, out_features=1024, bias=True)
      (4): SwishGLU(
        (projection): Linear(in_features=1024, out_features=2048, bias=True)
        (activation): SiLU()
      )
      (5): Dropout(p=0.3, inplace=False)
      (6): Linear(in_features=1024, out_features=3, bias=True)
    )
  )
)

Model Parameters:
  bert.embeddings.word_embeddings: 31,254,528 (trainable)
  bert.embeddings.position_embeddings: 524,288 (trainable)
  bert.embeddings.token_type_embeddings: 2,048 (trainable)
  bert.embeddings.LayerNorm: 2,048 (trainable)
  bert.encoder.layer.0.attention.self.query: 1,049,600 (trainable)
  bert.encoder.layer.0.attention.self.key: 1,049,600 (trainable)
…
